data.pth (torch, 5866 bytes, 6 tensors)

l1.weight f4 [8, 62]
00000000: d6c4 b5bc e763 16be dfce 86be 77e1 52be
00000010: 5616 b6be cfcd d53e 177d 993e 8ddd aebd
00000020: 35e7 8e3e 819f ddbd eb46 0abe bb7d d6bc
00000030: 31a9 d83e 096c f43e 1d85 68bd 7ba4 6f3f
00000040: 2e8f 98be cac8 e13e 9394 673f 90ad 5dbd
00000050: 5a6c 8ebd d1b2 143f 077b 233f 2c0c 863d
00000060: a5dd 64be e81d 3cbe 7352 4dbe b5c9 1cbc
00000070: 2684 253c daea a6bd e94f 0f3f 3519 04be
00000080: 434c 66be f8d1 813d 9f18 5abe fefa 59bd
00000090: 0539 453d 991a edbc 63f1 d63e 5057 7d3d
000000a0: bae6 28be 6ce4 8cbd 7312 043f f700 4fbe
000000b0: 66e2 18be 8d5f 73be d605 d93e 8768 74be
000000c0: d717 78be 3f66 5ebe e77e 54be 8c5f 823d
000000d0: 76d3 40be ddc8 56be cc6b a8bd 9467 97bd
000000e0: 98bc 62be 98cf 133e ce89 97be 727c 903d
000000f0: 5037 a53e 9616 383f eb9b d53e f45c 113d
00000100: d7f8 3e3e 1641 cc3e 2509 10be 5217 2a3e
00000110: e18b 0d3d 79a0 65be 3c00 0abe b830 6ebe
00000120: ef82 e13e 0025 cc3e 5a2e c3bc 45fb 563f
00000130: 10b9 0ebf 5f6b 51bf 5295 153f 6bae 593f
00000140: a66f 51bf 6dc3 f73e abe2 273f 1802 863f
00000150: 2dd6 883f 3ba0 f43e 696b b83e 8330 583e
00000160: 3310 e93e a660 75bd 30e4 92be 6d63 b0be
00000170: 3047 83be c4d9 d93e 5ee6 f9bd 795d e03e
00000180: c334 ce3e 6e8e fe3e 995b 203f 36af 0ebf
00000190: f84e a23e 51c2 463f 916b 553e 3dee ffbd
000001a0: ac23 58be 2cfc da3e c1df 993e 323c 503e
000001b0: a3b1 19be bbff 47bf d103 af3e f9a3 a83e
000001c0: 8cff 103f 66a6 173d dd8a 26bf 68af 30be
000001d0: 4a22 be3e b2be a6bd afe8 f43e 1af1 4b3e
000001e0: ccec ad3e f94f a73e 500d 913e 047b b3be
000001f0: 7e18 1a3f 7be3 953e 077e af3e bcff 25be
00000200: f0f2 8e3d 5c97 ef3e 754a d43e f868 30bc
00000210: fb3c ad3d 2655 a43e dfbb 58be 955a ed3e
00000220: 53c5 da3e 6677 df3e c625 1d3f d133 1a3f
00000230: 506e e4be e182 803e 54e4 133f 9823 583e
00000240: 595c ab3e cb61 fe3c 0527 2c3d 1fbb 883e
00000250: 7bbe 4dbe e27e d83e 8537 85be 9219 2cbe
00000260: 2df4 003f be05 f63e 5ce1 e13e 9cb4 19be
00000270: 0aff 843e ae43 c93e 87cc b2be 4fa8 193f
00000280: 81f9 863e 1d8c bebd 1073 df3e 2248 5cbf
00000290: 6388 08bf b7c1 483f d61b f63e ec25 54be
000002a0: 7664 38be 3e5f 033f 521d 103f 0e8b 7ebe
000002b0: 501f 52be 0b6f f6bd dfc6 44bf fbd5 483f
000002c0: 14a2 5c3f 988a 1e3e 5da1 d2be e464 8fbd
000002d0: eb4b 2abe 6ac1 e83e 481d 92be bfa1 ac3e
000002e0: dc80 f33e f5b0 cf3e 1243 73bb af29 69be
000002f0: 239c 43be 0233 34be e94b bdbe 3aa0 203f
00000300: 5f68 2d3f 75e8 5f3b f561 813e f69d 3ebe
00000310: 418c 10be fdf3 dc3d 53cf 303f 3941 de3e
00000320: 4590 893e 1003 f53e e4ac d7be 99ff e53e
00000330: a0c2 f93e 7c6b 9e3c f7fa 1d3e a276 093f
00000340: 188b 233f 71b9 303d 791a 29be f9e0 82be
00000350: 2451 e9bd 3d1f 99be 99bd a43d e23b 643e
00000360: d532 0a3e 3fe9 a7bd 4ad7 03bd ddee 643e
00000370: 6cac dabc fad6 fe3d 5b31 303e 3b3f f2bd
00000380: 6e4b 2b3f a269 d0bd c69c 4fbe 486c ecbd
00000390: f386 843c 5806 96be 4284 99be f9c6 3bbd
000003a0: f769 233f 6e4d 82be 2573 9dbe 7d44 47be
000003b0: d848 73be 18d4 b6bd 359a a13e d56c 9abe
000003c0: b36b 89be fadc 5e3d 2ca4 3dbe 6418 a73e
000003d0: d8e0 73be d765 e73d d765 e33e 72f2 513e
000003e0: deed b03e 0a82 ce3e 78f9 df3e 562c cbbe
000003f0: c8ba 833e a415 07bf 6030 c1be f803 a53e
-0.022188585 -0.14686547 -0.26329705 -0.2059382 -0.35563916 0.41758582 0.29978248 -0.08538351
0.27910772 -0.108214386 -0.13503616 -0.026183 0.42316583 0.47738674 -0.05676757 0.9361035
-0.29796737 0.44098502 0.9046108 -0.0541206 -0.0695426 0.5808535 0.638596 0.0654529
-0.22350176 -0.18370783 -0.20050983 -0.009569575 0.010102307 -0.08150263 0.5598131 -0.1290024
-0.22490029 0.063388765 -0.21298455 -0.05321788 0.04815008 -0.028943347 0.41981038 0.061850846
-0.16494265 -0.068795055 0.5159065 -0.20215212 -0.14930114 -0.23766918 0.42387265 -0.23867999
-0.24227844 -0.21718691 -0.20751534 0.0636588 -0.18830666 -0.20975061 -0.082236856 -0.07392803
-0.22142255 0.1443466 -0.29597324 0.07054986 0.32268763 0.71909463 0.41720518 0.035489038
0.18649612 0.39893407 -0.14065988 0.16610458 0.034557227 -0.22424497 -0.13476652 -0.23260772
0.44045207 0.3987198 -0.023825813 0.83977157 -0.5575113 -0.8180446 0.5843097 0.85031766
-0.81810987 0.48391286 0.6558024 1.0469389 1.0690361 0.47778496 0.36019447 0.21112256
0.45520172 -0.059906624 -0.28689718 -0.34450856 -0.2564025 0.42548954 -0.12202142 0.43821314
0.4027463 0.4971804 0.62639767 -0.557361 0.31700873 0.77640253 0.20841815 -0.12496612
-0.21107358 0.42770517 0.30053523 0.20335463 -0.1500917 -0.7812459 0.341826 0.329376
0.56639934 0.037023924 -0.6505564 -0.17254412 0.37135535 -0.08141841 0.47833773 0.19916192
0.33969724 0.32678202 0.2833047 -0.3505479 0.6019362 0.29275116 0.3427584 -0.16210836
0.069799304 0.46795166 0.41463056 -0.010767214 0.08458897 0.32096213 -0.21165417 0.4635817
0.4272867 0.4364578 0.6138576 0.60235316 -0.44615412 0.25099853 0.57770276 0.21107328
0.33468893 0.03105249 0.0420294 0.26705262 -0.20092194 0.42284304 -0.2601892 -0.1680663
0.5037258 0.48051256 0.44117248 -0.15010303 0.2597583 0.39309448 -0.34921667 0.60022444
0.2636223 -0.09304068 0.43642473 -0.86047566 -0.5333311 0.78420585 0.48068112 -0.20717591
-0.18007073 0.51317203 0.5629474 -0.24857733 -0.20519757 -0.120328985 -0.76865953 0.7845151
0.8618481 0.15482557 -0.41138735 -0.07001665 -0.16630523 0.45460063 -0.28537965 0.33717152
0.4755925 0.40564695 -0.0037118834 -0.22769807 -0.1910253 -0.17597583 -0.36971977 0.62744486
0.6773738 0.0034165655 0.25270048 -0.18614945 -0.14116003 0.107887246 0.6906635 0.43409136
0.2686788 0.478539 -0.42124093 0.44921568 0.487813 0.019338362 0.15427767 0.53696644
0.63884115 0.0431456 -0.16514005 -0.25562266 -0.113924295 -0.29906645 0.080439754 0.22288468
0.13495953 -0.08198785 -0.032187738 0.22356744 -0.026693545 0.12443347 0.17206328 -0.118284665
0.6691197 -0.10176398 -0.20274648 -0.115440905 0.01617763 -0.29301715 -0.29983717 -0.045844052
0.63833565 -0.254497 -0.3075191 -0.1945972 -0.23758256 -0.089271724 0.31562963 -0.30161157
-0.2683998 0.05440996 -0.18519658 0.32635796 -0.2381624 0.11298721 0.44413635 0.20502642
0.34556478 0.40333587 0.43745017 -0.39682263 0.2572844 -0.52767396 -0.3773222 0.3222959

l1.bias f4 [8]
00000000: 420b 873f 2d6c 513f 9d4e 6b3f 5c93 593f
00000010: 6812 583f 2ddb 9d3e 1ac2 fbbd 4f7f c9bd
1.0550311 0.8180569 0.9191683 0.8499048 0.84403086 0.3083128 -0.12292881 -0.09838735

l2.weight f4 [8, 8]
00000000: 8d3d d53e e4db d4bf 4427 943f fed1 b5bc
00000010: 7a49 903e d4cd 9ebe a2e3 473e fbe0 9d3e
00000020: 0e5a ad3f f508 533e d9ed 6b3f d3b6 b23f
00000030: 2b0d 95bd 2649 0a3d 9017 953c d779 2fbe
00000040: e33f 00bf b2b4 463f b5ae 813d 6fd7 6fbf
00000050: 5d57 933f d306 5e3e 9a6b 3e3e 1eef 90be
00000060: f4e7 edbe b70f 0bbf 0d75 9c3f bbff 86bd
00000070: 52e3 b6bd 7b63 4fbf d839 283d c860 1c3e
00000080: b460 853e 846b 9d3d e957 843d a6ec 94be
00000090: 78e2 c2bd f29b 32bc 2ce3 99bd 60c8 55be
000000a0: 1557 e1be 00e5 e53e a444 73be 43a8 89bf
000000b0: c6e1 26bf f5b1 453f 78c6 a23d 78a7 19bd
000000c0: 6a9a 38bf c5fc 733f 84e3 8b3f 5e95 ce3d
000000d0: 94bc 2fbf 1af8 703f 6c04 92be d3e9 13bd
000000e0: 448d 2e3f 8a60 253f 0020 c8be 9920 bb3e
000000f0: 67ae 793f b9d9 82bf a3ca 92be dc99 97be
0.41648522 -1.6629605 1.1574483 -0.022194859 0.28181058 -0.3101641 0.19520429 0.3083571
1.3543108 0.20608886 0.921598 1.3962044 -0.07277902 0.033761166 0.018199712 -0.17136322
-0.50097483 0.7761947 0.06332151 -0.936881 1.1511036 0.2168229 0.18595734 -0.28307432
-0.4646603 -0.54320854 1.2223221 -0.065917455 -0.08930077 -0.8101117 0.04107079 0.15271294
0.2605034 0.076865226 0.0646208 -0.29086798 -0.09515852 -0.010901438 -0.07514033 -0.20877218
-0.4401175 0.44901276 -0.23756653 -1.0754474 -0.6518825 0.77224666 0.07948011 -0.037513226
-0.7211062 0.9530757 1.0928807 0.10087083 -0.6864712 0.9412857 -0.28519 -0.036111664
0.68184304 0.6460043 -0.39086914 0.36548308 0.9753174 -1.0222694 -0.28670225 -0.29609573

l2.bias f4 [8]
00000000: 7999 763f 7c3a c1be a905 363f 93a7 603f
00000010: ec4b cbbe 8fdd 043e 4b53 fd3e f3a6 4d3f
0.9632793 -0.37739933 0.71102387 0.877557 -0.3970636 0.12975143 0.4947761 0.8033287

l3.weight f4 [8, 8]
00000000: 9f69 94be 6f2c 363f 5dc5 97bf ed10 81be
00000010: f9e4 3b3e e72b 48bf 7123 253f 4c2f 6ebf
00000020: 7c2c 07bf 8e91 97bf 43fe 89bd c97a 13bf
00000030: 53b5 80be cc98 1d3f 463f 573f a5d5 14bf
00000040: 9603 643f 8042 143f ac69 9ebf 4b73 a83d
00000050: 4558 98be b4e5 4abe 17ea afbf f461 103e
00000060: 4c5b 91bf 91e2 353f 185a b1be 3614 1cbe
00000070: ca74 763e 0674 1abf 5fea d3be acd5 413f
00000080: 5f31 89bf 76f9 ecbc b0f2 1d3f e745 f2be
00000090: c129 7dbe 5c4c a2bf 3f6b ec3e 44ae 23bf
000000a0: 17c7 8e3f 6ea2 b2bf f930 103e 7c31 163f
000000b0: a508 b9be 6b6d 0abf 606b c8be 4524 033f
000000c0: ebd9 45bf 9a1e 82bf 92d2 6c3f 3abe 16bf
000000d0: f070 8f3e d959 37bf 0682 61bf 6e22 383f
000000e0: 47c4 183f 3f03 47be b4da 3dbf 6268 733f
000000f0: dfae 39be 33f2 3bbf c41c 023f 716f 7abf
-0.28986832 0.7116155 -1.1857105 -0.25208226 0.18349065 -0.7819199 0.64507204 -0.9304092
-0.5280225 -1.1841295 -0.0673795 -0.5760923 -0.2513834 0.61561275 0.8408092 -0.58138496
0.8906797 0.5791397 -1.2375998 0.082251154 -0.29754844 -0.19814187 -1.3743314 0.14099866
-1.1355987 0.7104884 -0.3463905 -0.15242085 0.24067989 -0.6033329 -0.41389748 0.7571666
-1.0718192 -0.028927546 0.61698437 -0.47318956 -0.24722959 -1.2679553 0.46175572 -0.63937783
1.1154507 -1.395582 0.14081182 0.5866926 -0.36139408 -0.5407321 -0.3914442 0.5122722
-0.7728564 -1.0165589 0.92508805 -0.5888401 0.28015852 -0.7162147 -0.88089025 0.71927536
0.59674495 -0.19434832 -0.7416184 0.9508115 -0.18133114 -0.7341644 0.5082514 -0.97826296

l3.bias f4 [8]
00000000: 725c f0be e1ab e6bd b29b 223e 511e aebe
00000010: 5e50 adbe 3ac7 153c 0607 acbd e1ee a7be
-0.4694553 -0.11263252 0.15879706 -0.34007505 -0.33850378 0.009141738 -0.08399777 -0.32799438
